…
      "text": "(toroidal_sim_env) player1@player1-System:~$ python qa_champion.py --epochs 50\n2025-08-14 21:36:52.723080: I tensorflow/core/platform/cpu_feature_guard.cc:210] This TensorFlow binary is optimized to use available CPU instructions in performance-critical operations.\nTo enable the following instructions: AVX2 FMA, in other operations, rebuild TensorFlow with the appropriate compiler flags.\n[INFO] Building and training new CHAMPION model...\nModel: \"functional\"\n┏━━━━━━━━━━━━━━━━━━━━━━━━━━━━━━━━━━━━━━┳━━━━━━━━━━━━━━━━━━━━━━━━━━━━━┳━━━━━━━━━━━━━━━━━┓\n┃ Layer (type)                         ┃ Output Shape                ┃         Param # ┃\n┡━━━━━━━━━━━━━━━━━━━━━━━━━━━━━━━━━━━━━━╇━━━━━━━━━━━━━━━━━━━━━━━━━━━━━╇━━━━━━━━━━━━━━━━━┩\n│ input_layer (InputLayer)             │ (None, 28, 28, 1)           │               0 │\n├──────────────────────────────────────┼─────────────────────────────┼─────────────────┤\n│ QAConv24 (QAConv24)                  │ (None, 28, 28, 32)          │             768 │\n├──────────────────────────────────────┼─────────────────────────────┼─────────────────┤\n│ batch_normalization                  │ (None, 28, 28, 32)          │             128 │\n│ (BatchNormalization)                 │                             │                 │\n├──────────────────────────────────────┼─────────────────────────────┼─────────────────┤\n│ activation (Activation)              │ (None, 28, 28, 32)          │               0 │\n├──────────────────────────────────────┼─────────────────────────────┼─────────────────┤\n│ conv2d (Conv2D)                      │ (None, 28, 28, 64)          │          18,496 │\n├──────────────────────────────────────┼─────────────────────────────┼─────────────────┤\n│ batch_normalization_1                │ (None, 28, 28, 64)          │             256 │\n│ (BatchNormalization)                 │                             │                 │\n├──────────────────────────────────────┼─────────────────────────────┼─────────────────┤\n│ activation_1 (Activation)            │ (None, 28, 28, 64)          │               0 │\n├──────────────────────────────────────┼─────────────────────────────┼─────────────────┤\n│ max_pooling2d (MaxPooling2D)         │ (None, 14, 14, 64)          │               0 │\n├──────────────────────────────────────┼─────────────────────────────┼─────────────────┤\n│ dropout (Dropout)                    │ (None, 14, 14, 64)          │               0 │\n├──────────────────────────────────────┼─────────────────────────────┼─────────────────┤\n│ conv2d_1 (Conv2D)                    │ (None, 14, 14, 128)         │          73,856 │\n├──────────────────────────────────────┼─────────────────────────────┼─────────────────┤\n│ batch_normalization_2                │ (None, 14, 14, 128)         │             512 │\n│ (BatchNormalization)                 │                             │                 │\n├──────────────────────────────────────┼─────────────────────────────┼─────────────────┤\n│ activation_2 (Activation)            │ (None, 14, 14, 128)         │               0 │\n├──────────────────────────────────────┼─────────────────────────────┼─────────────────┤\n│ conv2d_2 (Conv2D)                    │ (None, 14, 14, 128)         │         147,584 │\n├──────────────────────────────────────┼─────────────────────────────┼─────────────────┤\n│ batch_normalization_3                │ (None, 14, 14, 128)         │             512 │\n│ (BatchNormalization)                 │                             │                 │\n├──────────────────────────────────────┼─────────────────────────────┼─────────────────┤\n│ activation_3 (Activation)            │ (None, 14, 14, 128)         │               0 │\n├──────────────────────────────────────┼─────────────────────────────┼─────────────────┤\n│ max_pooling2d_1 (MaxPooling2D)       │ (None, 7, 7, 128)           │               0 │\n├──────────────────────────────────────┼─────────────────────────────┼─────────────────┤\n│ dropout_1 (Dropout)                  │ (None, 7, 7, 128)           │               0 │\n├──────────────────────────────────────┼─────────────────────────────┼─────────────────┤\n│ global_average_pooling2d             │ (None, 128)                 │               0 │\n│ (GlobalAveragePooling2D)             │                             │                 │\n├──────────────────────────────────────┼─────────────────────────────┼─────────────────┤\n│ dense (Dense)                        │ (None, 128)                 │          16,512 │\n├──────────────────────────────────────┼─────────────────────────────┼─────────────────┤\n│ batch_normalization_4                │ (None, 128)                 │             512 │\n│ (BatchNormalization)                 │                             │                 │\n├──────────────────────────────────────┼─────────────────────────────┼─────────────────┤\n│ dropout_2 (Dropout)                  │ (None, 128)                 │               0 │\n├──────────────────────────────────────┼─────────────────────────────┼─────────────────┤\n│ dense_1 (Dense)                      │ (None, 10)                  │           1,290 │\n└──────────────────────────────────────┴─────────────────────────────┴─────────────────┘\n Total params: 260,426 (1017.29 KB)\n Trainable params: 259,466 (1013.54 KB)\n Non-trainable params: 960 (3.75 KB)\n[INFO] Augmentation enabled.\nEpoch 1/50\n469/469 - 157s - 336ms/step - accuracy: 0.6938 - loss: 0.8713 - val_accuracy: 0.7663 - val_loss: 0.6492 - learning_rate: 1.0000e-03\nEpoch 2/50\n469
…
lowing instructions: AVX2 FMA, in other operations, rebuild TensorFlow with the appropriate compiler flags.\nCalculating QA features for training and test sets...\n[INFO] Building and training CANONICAL model #1 for 72 epochs...\nModel: \"functional\"\n┏━━━━━━━━━━━━━━━━━━━━━━━━━━━━━┳━━━━━━━━━━━━━━━━━━━━━━━━━━┳━━━━━━━━━━━━━━━━━┳━━━━━━━━━━━━━━━━━━━━━━━━━━┓\n┃ Layer (type)                ┃ Output Shape             ┃         Param # ┃ Connected to             ┃\n┡━━━━━━━━━━━━━━━━━━━━━━━━━━━━━╇━━━━━━━━━━━━━━━━━━━━━━━━━━╇━━━━━━━━━━━━━━━━━╇━━━━━━━━━━━━━━━━━━━━━━━━━━┩\n│ image_input (InputLayer)    │ (None, 28, 28, 1)        │               0 │ -                        │\n├─────────────────────────────┼──────────────────────────┼─────────────────┼──────────────────────────┤\n│ QAConv24 (QAConv24)         │ (None, 28, 28, 32)       │             768 │ image_input[0][0]        │\n├─────────────────────────────┼──────────────────────────┼─────────────────┼──────────────────────────┤\n│ batch_normalization         │ (None, 28, 28, 32)       │             128 │ QAConv24[0][0]           │\n│ (BatchNormalization)        │                          │                 │                          │\n├─────────────────────────────┼──────────────────────────┼─────────────────┼──────────────────────────┤\n│ activation (Activation)     │ (None, 28, 28, 32)       │               0 │ batch_normalization[0][… │\n├─────────────────────────────┼──────────────────────────┼─────────────────┼──────────────────────────┤\n│ conv2d (Conv2D)             │ (None, 28, 28, 64)       │          18,496 │ activation[0][0]         │\n├─────────────────────────────┼──────────────────────────┼─────────────────┼──────────────────────────┤\n│ batch_normalization_1       │ (None, 28, 28, 64)       │             256 │ conv2d[0][0]             │\n│ (BatchNormalization)        │                          │                 │                          │\n├─────────────────────────────┼──────────────────────────┼─────────────────┼──────────────────────────┤\n│ activation_1 (Activation)   │ (None, 28, 28, 64)       │               0 │ batch_normalization_1[0… │\n├─────────────────────────────┼──────────────────────────┼─────────────────┼──────────────────────────┤\n│ max_pooling2d               │ (None, 14, 14, 64)       │               0 │ activation_1[0][0]       │\n│ (MaxPooling2D)              │                          │                 │                          │\n├─────────────────────────────┼──────────────────────────┼─────────────────┼──────────────────────────┤\n│ dropout (Dropout)           │ (None, 14, 14, 64)       │               0 │ max_pooling2d[0][0]      │\n├─────────────────────────────┼──────────────────────────┼─────────────────┼──────────────────────────┤\n│ conv2d_1 (Conv2D)           │ (None, 14, 14, 128)      │          73,856 │ dropout[0][0]            │\n├─────────────────────────────┼──────────────────────────┼─────────────────┼──────────────────────────┤\n│ batch_normalization_2       │ (None, 14, 14, 128)      │             512 │ conv2d_1[0][0]           │\n│ (BatchNormalization)        │                          │                 │                          │\n├─────────────────────────────┼──────────────────────────┼─────────────────┼──────────────────────────┤\n│ activation_2 (Activation)   │ (None, 14, 14, 128)      │               0 │ batch_normalization_2[0… │\n├─────────────────────────────┼──────────────────────────┼─────────────────┼──────────────────────────┤\n│ max_pooling2d_1             │ (None, 7, 7, 128)        │               0 │ activation_2[0][0]       │\n│ (MaxPooling2D)              │                          │                 │                          │\n├─────────────────────────────┼──────────────────────────┼─────────────────┼──────────────────────────┤\n│ dropout_1 (Dropout)         │ (None, 7, 7, 128)        │               0 │ max_pooling2d_1[0][0]    │\n├─────────────────────────────┼──────────────────────────┼─────────────────┼──────────────────────────┤\n│ global_average_pooling2d    │ (None, 128)              │               0 │ dropout_1[0][0]          │\n│ (GlobalAveragePooling2D)    │                          │                 │                          │\n├─────────────────────────────┼──────────────────────────┼─────────────────┼──────────────────────────┤\n│ qa_vector_input             │ (None, 24)               │               0 │ -                        │\n│ (InputLayer)                │                          │                 │                          │\n├─────────────────────────────┼──────────────────────────┼─────────────────┼──────────────────────────┤\n│ qa_tuple_input (InputLayer) │ (None, 4)                │               0 │ -                        │\n├─────────────────────────────┼──────────────────────────┼─────────────────┼──────────────────────────┤\n│ concatenate (Concatenate)   │ (None, 156)              │               0 │ global_average_pooling2… │\n│                             │                          │                 │ qa_vector_input[0][0],   │\n│                             │                          │                 │ qa_tuple_input[0][0]     │\n├─────────────────────────────┼──────────────────────────┼─────────────────┼──────────────────────────┤\n│ dense (Dense)               │ (None, 128)              │          20,096 │ concatenate[0][0]        │\n├─────────────────────────────┼──────────────────────────┼─────────────────┼──────────────────────────┤\n│ batch_normalization_3       │ (None, 128)              │             512 │ dense[0][0]              │\n│ (BatchNormalization)        │                          │                 │                          │\n├─────────────────────────────┼──────────────────────────┼─────────────────┼──────────────────────────┤\n│ dropout_2 (Dropout)         │ (None, 128)              │               0 │ batch_normalization_3[0… │\n├─────────────────────────────┼──────────────────────────┼─────────────────┼──────────────────────────┤\n│ dense_1 (Dense)             │ (None, 10)               │           1,290 │ dropout_2[0][0]          │\n└─────────────────────────────┴──────────────────────────┴─────────────────┴──────────────────────────┘\n Total params: 115,914 (452.79 KB)\n Trainable params: 115,210 (450.04 KB)\n Non-trainable params: 704 (2.75 KB)\nEpoch 1/72\n469/469 - 110s - 234ms/step - accuracy: 0.6124 - loss: 1.0773 - val_accuracy: 0.1932 - val_loss: 8.1080 - learning_rate: 1.0000e-03\nEpoch
…
